2023-05-18 16:51:02.684176: I tensorflow/core/platform/cpu_feature_guard.cc:193] This TensorFlow binary is optimized with oneAPI Deep Neural Network Library (oneDNN) to use the following CPU instructions in performance-critical operations:  AVX2 FMA
To enable them in other operations, rebuild TensorFlow with the appropriate compiler flags.
<stable_baselines3.ppo.ppo.PPO object at 0x7f76044113c0>
ActorCriticCnnPolicy(
  (features_extractor): NatureCNN(
    (cnn): Sequential(
      (0): Conv2d(3, 32, kernel_size=(8, 8), stride=(4, 4))
      (1): ReLU()
      (2): Conv2d(32, 64, kernel_size=(4, 4), stride=(2, 2))
      (3): ReLU()
      (4): Conv2d(64, 64, kernel_size=(3, 3), stride=(1, 1))
      (5): ReLU()
      (6): Flatten(start_dim=1, end_dim=-1)
    )
    (linear): Sequential(
      (0): Linear(in_features=1024, out_features=512, bias=True)
      (1): ReLU()
    )
  )
  (pi_features_extractor): NatureCNN(
    (cnn): Sequential(
      (0): Conv2d(3, 32, kernel_size=(8, 8), stride=(4, 4))
      (1): ReLU()
      (2): Conv2d(32, 64, kernel_size=(4, 4), stride=(2, 2))
      (3): ReLU()
      (4): Conv2d(64, 64, kernel_size=(3, 3), stride=(1, 1))
      (5): ReLU()
      (6): Flatten(start_dim=1, end_dim=-1)
    )
    (linear): Sequential(
      (0): Linear(in_features=1024, out_features=512, bias=True)
      (1): ReLU()
    )
  )
  (vf_features_extractor): NatureCNN(
    (cnn): Sequential(
      (0): Conv2d(3, 32, kernel_size=(8, 8), stride=(4, 4))
      (1): ReLU()
      (2): Conv2d(32, 64, kernel_size=(4, 4), stride=(2, 2))
      (3): ReLU()
      (4): Conv2d(64, 64, kernel_size=(3, 3), stride=(1, 1))
      (5): ReLU()
      (6): Flatten(start_dim=1, end_dim=-1)
    )
    (linear): Sequential(
      (0): Linear(in_features=1024, out_features=512, bias=True)
      (1): ReLU()
    )
  )
  (mlp_extractor): MlpExtractor(
    (policy_net): Sequential(
      (0): Linear(in_features=512, out_features=32, bias=True)
      (1): Tanh()
      (2): Linear(in_features=32, out_features=64, bias=True)
      (3): Tanh()
    )
    (value_net): Sequential(
      (0): Linear(in_features=512, out_features=32, bias=True)
      (1): Tanh()
      (2): Linear(in_features=32, out_features=64, bias=True)
      (3): Tanh()
    )
  )
  (action_net): Linear(in_features=64, out_features=4, bias=True)
  (value_net): Linear(in_features=64, out_features=1, bias=True)
)
===========================================================
parameters
{'policy': OrderedDict([('log_std', tensor([-0.6384, -0.6182, -0.6009, -0.7612], device='cuda:0')), ('features_extractor.cnn.0.weight', tensor([[[[-7.9333e-02, -9.5798e-02, -4.5986e-02,  ...,  1.2341e-02,
            3.3520e-02,  1.3845e-01],
          [ 1.0822e-01,  5.8950e-02,  1.8133e-03,  ...,  8.8055e-02,
…
