…
 [-2.17362158e-02 -6.78834096e-02 -1.39818043e-01  1.82138371e-09]]
Input shape:  (64, 64, 3)
Obs train shape:  (64185, 64, 64, 3)
Obs test shape:  (20059, 64, 64, 3)
Obs val shape:  (16047, 64, 64, 3)
Creating model...
Adding conv layer with 256 nodes
Adding conv layer with 128 nodes
Adding dense layer with 500 nodes
Adding dense layer with 300 nodes
Adding dense layer with 200 nodes
Compiling the model...
Model: "sequential"
_________________________________________________________________
 Layer (type)                Output Shape              Param #   
=================================================================
 conv2d (Conv2D)             (None, 62, 62, 512)       14336     
                                                                 
 max_pooling2d (MaxPooling2D  (None, 31, 31, 512)      0         
 )                                                               
                                                                 
 conv2d_1 (Conv2D)           (None, 29, 29, 256)       1179904   
                                                                 
 max_pooling2d_1 (MaxPooling  (None, 14, 14, 256)      0         
 2D)                                                             
                                                                 
 conv2d_2 (Conv2D)           (None, 12, 12, 128)       295040    
                                                                 
 max_pooling2d_2 (MaxPooling  (None, 6, 6, 128)        0         
 2D)                                                             
                                                                 
 flatten (Flatten)           (None, 4608)              0         
                                                                 
 dense (Dense)               (None, 500)               2304500   
                                                                 
 dropout (Dropout)           (None, 500)               0         
                                                                 
 dense_1 (Dense)             (None, 300)               150300    
                                                                 
 dropout_1 (Dropout)         (None, 300)               0         
                                                                 
 dense_2 (Dense)             (None, 200)               60200     
                                                                 
 dropout_2 (Dropout)         (None, 200)               0         
                                                                 
 dense_3 (Dense)             (None, 4)                 804       
                                                                 
=================================================================
Total params: 4,005,084
Trainable params: 4,005,084
Non-trainable params: 0
_________________________________________________________________
2023-05-21 04:34:39.959143: W tensorflow/tsl/framework/cpu_allocator_impl.cc:82] Allocation of 3154821120 exceeds 10% of free system memory.
…
