['/device:GPU:0']
Input shape:  (64, 64, 3)
Obs train shape:  (64077, 64, 64, 3)
Obs test shape:  (20025, 64, 64, 3)
Obs val shape:  (16020, 64, 64, 3)
Creating model...
[48, 48, 48, 48]
Compiling the model...
Model: "sequential"
_________________________________________________________________
 Layer (type)                Output Shape              Param #   
=================================================================
 conv2d (Conv2D)             (None, 62, 62, 48)        1344      
                                                                 
 max_pooling2d (MaxPooling2D  (None, 31, 31, 48)       0         
 )                                                               
                                                                 
 conv2d_1 (Conv2D)           (None, 29, 29, 48)        20784     
                                                                 
 max_pooling2d_1 (MaxPooling  (None, 14, 14, 48)       0         
 2D)                                                             
                                                                 
 conv2d_2 (Conv2D)           (None, 12, 12, 48)        20784     
                                                                 
 max_pooling2d_2 (MaxPooling  (None, 6, 6, 48)         0         
 2D)                                                             
                                                                 
 conv2d_3 (Conv2D)           (None, 4, 4, 48)          20784     
                                                                 
 max_pooling2d_3 (MaxPooling  (None, 2, 2, 48)         0         
 2D)                                                             
                                                                 
 flatten (Flatten)           (None, 192)               0         
                                                                 
 dense (Dense)               (None, 50)                9650      
                                                                 
 dropout (Dropout)           (None, 50)                0         
                                                                 
 dense_1 (Dense)             (None, 4)                 204       
                                                                 
=================================================================
Total params: 73,550
Trainable params: 73,550
Non-trainable params: 0
_________________________________________________________________
None
Model created
{'dense_layer_size_0': 50,
 'dropout_rate': 0.0,
 'lr': 0.001,
 'num_dense_layers': 1,
 'num_layers': 4,
 'units_0': 48,
…
64                |64                |units_1
96                |96                |units_2
64                |64                |units_3
0.3               |0.3               |dropout_rate
1                 |1                 |num_dense_layers
150               |150               |dense_layer_size_0
0.002296          |0.002296          |lr

Creating model...
[48, 64, 96]
Compiling the model...
Model: "sequential"
_________________________________________________________________
 Layer (type)                Output Shape              Param #   
=================================================================
 conv2d (Conv2D)             (None, 62, 62, 48)        1344      
                                                                 
 max_pooling2d (MaxPooling2D  (None, 31, 31, 48)       0         
 )                                                               
                                                                 
 conv2d_1 (Conv2D)           (None, 29, 29, 64)        27712     
                                                                 
 max_pooling2d_1 (MaxPooling  (None, 14, 14, 64)       0         
 2D)                                                             
                                                                 
 conv2d_2 (Conv2D)           (None, 12, 12, 96)        55392     
                                                                 
 max_pooling2d_2 (MaxPooling  (None, 6, 6, 96)         0         
 2D)                                                             
                                                                 
 flatten (Flatten)           (None, 3456)              0         
                                                                 
 dense (Dense)               (None, 150)               518550    
                                                                 
 dropout (Dropout)           (None, 150)               0         
                                                                 
 dense_1 (Dense)             (None, 4)                 604       
                                                                 
=================================================================
Total params: 603,602
Trainable params: 603,602
Non-trainable params: 0
_________________________________________________________________
None
Model created
{'dense_layer_size_0': 150,
 'dropout_rate': 0.3,
 'lr': 0.0022959649401807646,
 'num_dense_layers': 1,
…
256               |64                |units_3
0.3               |0.3               |dropout_rate
1                 |1                 |num_dense_layers
100               |150               |dense_layer_size_0
0.023732          |0.002296          |lr
128               |128               |batch_size

Creating model...
[64, 96, 96, 256]
Compiling the model...
Model: "sequential"
_________________________________________________________________
 Layer (type)                Output Shape              Param #   
=================================================================
 conv2d (Conv2D)             (None, 62, 62, 64)        1792      
                                                                 
 max_pooling2d (MaxPooling2D  (None, 31, 31, 64)       0         
 )                                                               
                                                                 
 conv2d_1 (Conv2D)           (None, 29, 29, 96)        55392     
                                                                 
 max_pooling2d_1 (MaxPooling  (None, 14, 14, 96)       0         
 2D)                                                             
                                                                 
 conv2d_2 (Conv2D)           (None, 12, 12, 96)        83040     
                                                                 
 max_pooling2d_2 (MaxPooling  (None, 6, 6, 96)         0         
 2D)                                                             
                                                                 
 conv2d_3 (Conv2D)           (None, 4, 4, 256)         221440    
                                                                 
 max_pooling2d_3 (MaxPooling  (None, 2, 2, 256)        0         
 2D)                                                             
                                                                 
 flatten (Flatten)           (None, 1024)              0         
                                                                 
 dense (Dense)               (None, 100)               102500    
                                                                 
 dropout (Dropout)           (None, 100)               0         
                                                                 
 dense_1 (Dense)             (None, 4)                 404       
                                                                 
=================================================================
Total params: 464,568
Trainable params: 464,568
Non-trainable params: 0
_________________________________________________________________
None
Model created
{'batch_size': 128,
 'dense_layer_size_0': 100,
 'dropout_rate': 0.3,
 'lr': 0.023732139748292087,
 'num_dense_layers': 1,
…
48                |256               |units_3
0                 |0.3               |dropout_rate
1                 |1                 |num_dense_layers
100               |100               |dense_layer_size_0
0.0014223         |0.023732          |lr
512               |128               |batch_size

Creating model...
[48, 96, 64, 48]
Compiling the model...
Model: "sequential"
_________________________________________________________________
 Layer (type)                Output Shape              Param #   
=================================================================
 conv2d (Conv2D)             (None, 62, 62, 48)        1344      
                                                                 
 max_pooling2d (MaxPooling2D  (None, 31, 31, 48)       0         
 )                                                               
                                                                 
 conv2d_1 (Conv2D)           (None, 29, 29, 96)        41568     
                                                                 
 max_pooling2d_1 (MaxPooling  (None, 14, 14, 96)       0         
 2D)                                                             
                                                                 
 conv2d_2 (Conv2D)           (None, 12, 12, 64)        55360     
                                                                 
 max_pooling2d_2 (MaxPooling  (None, 6, 6, 64)         0         
 2D)                                                             
                                                                 
 conv2d_3 (Conv2D)           (None, 4, 4, 48)          27696     
                                                                 
 max_pooling2d_3 (MaxPooling  (None, 2, 2, 48)         0         
 2D)                                                             
                                                                 
 flatten (Flatten)           (None, 192)               0         
                                                                 
 dense (Dense)               (None, 100)               19300     
                                                                 
 dropout (Dropout)           (None, 100)               0         
                                                                 
 dense_1 (Dense)             (None, 4)                 404       
                                                                 
=================================================================
Total params: 145,672
Trainable params: 145,672
Non-trainable params: 0
_________________________________________________________________
None
Model created
{'batch_size': 512,
 'dense_layer_size_0': 100,
 'dropout_rate': 0.0,
 'lr': 0.0014222572818570103,
 'num_dense_layers': 1,
…
